Extracting model layers...
Model: "sequential_1"
_________________________________________________________________
 Layer (type)                Output Shape              Param #   
=================================================================
 conv2d_10 (Conv2D)          (None, 128, 128, 32)      896       
                                                                 
 conv2d_11 (Conv2D)          (None, 126, 126, 32)      9248      
                                                                 
 max_pooling2d_5 (MaxPooling  (None, 63, 63, 32)       0         
 2D)                                                             
                                                                 
 conv2d_12 (Conv2D)          (None, 63, 63, 64)        18496     
                                                                 
 conv2d_13 (Conv2D)          (None, 61, 61, 64)        36928     
                                                                 
 max_pooling2d_6 (MaxPooling  (None, 30, 30, 64)       0         
 2D)                                                             
                                                                 
 conv2d_14 (Conv2D)          (None, 30, 30, 128)       73856     
                                                                 
 conv2d_15 (Conv2D)          (None, 28, 28, 128)       147584    
                                                                 
 max_pooling2d_7 (MaxPooling  (None, 14, 14, 128)      0         
 2D)                                                             
                                                                 
 conv2d_16 (Conv2D)          (None, 14, 14, 256)       295168    
                                                                 
 conv2d_17 (Conv2D)          (None, 12, 12, 256)       590080    
                                                                 
 max_pooling2d_8 (MaxPooling  (None, 6, 6, 256)        0         
 2D)                                                             
                                                                 
 conv2d_18 (Conv2D)          (None, 6, 6, 512)         1180160   
                                                                 
 conv2d_19 (Conv2D)          (None, 4, 4, 512)         2359808   
                                                                 
 max_pooling2d_9 (MaxPooling  (None, 2, 2, 512)        0         
 2D)                                                             
                                                                 
 dropout_2 (Dropout)         (None, 2, 2, 512)         0         
                                                                 
 flatten_1 (Flatten)         (None, 2048)              0         
                                                                 
 dense_2 (Dense)             (None, 1500)              3073500   
                                                                 
 dropout_3 (Dropout)         (None, 1500)              0         
                                                                 
 dense_3 (Dense)             (None, 19)                28519     
                                                                 
=================================================================
Total params: 7,814,243
Trainable params: 7,814,243
Non-trainable params: 0
_________________________________________________________________
Layer 0: conv2d_10 (Conv2D)
  Config: {'name': 'conv2d_10', 'trainable': True, 'dtype': 'float32', 'filters': 32, 'kerne
…
